0. NNs structures

0.1 model structure
- NeuralNetwork(
  (linear_activation_stack): Sequential(
    (0): Linear(in_features=1, out_features=2, bias=True)
    (1): Sigmoid()
    (2): Linear(in_features=2, out_features=4, bias=True)
    (3): Sigmoid()
    (4): Linear(in_features=4, out_features=8, bias=True)
    (5): Sigmoid()
    (6): Linear(in_features=8, out_features=16, bias=True)
    (7): Sigmoid()
    (8): Linear(in_features=16, out_features=1, bias=False)
  )
) 

0.2 model_par structure
- activation: Sigmoid
- NeuralNetwork(
  (linears): ModuleList(
    (0): Linear(in_features=1, out_features=2, bias=True)
    (1): Linear(in_features=2, out_features=4, bias=True)
    (2): Linear(in_features=4, out_features=8, bias=True)
    (3): Linear(in_features=8, out_features=16, bias=True)
    (4): Linear(in_features=16, out_features=1, bias=False)
  )
) 

1. NNs

1.1 model parameters
W_1:
- size: 2x1
- distribution: N(0, 1.6)
- content: 
 [[-0.75]
 [-0.6 ]] 
	----
b_1:
- size: 2
- distribution: N(0, 0.2)
- content: 
 [0.11 0.44] 
	----
W_2:
- size: 4x2
- distribution: N(0, 0.8)
- content: 
 [[-0.12 -0.96]
 [-0.59 -0.06]
 [ 0.17  0.64]
 [-0.35  0.56]] 
	----
b_2:
- size: 4
…
